…
oad_path': '', 'monitor_metric': 'BLEU_4', 'cls': False, 'addcls': False, 'att_cls': False, 'randaug': False, 'resume': False, 'fbl': False, 'sub_back': False, 'attn_cam': False, 'drop_fbl': False, 'attn_method': False, 'early_exit': False, 'cls_w': 0.5, 'wmse': 0.5, 'layer_id': 2, 'topk': 0.1, 'fore_t': 0.6, 'back_t': 0.3, 'pe': 'none'}
[2023-09-30 22:07:48 iu_test] (main.py 65): INFO RANK and WORLD_SIZE in environ: 0/1
[2023-09-30 22:07:49 iu_test] (main.py 103): INFO RRGModel(
  (visual_extractor): VisualExtractor(
    (model): SwinTransformer(
      (patch_embed): PatchEmbed(
        (proj): Conv2d(3, 128, kernel_size=(4, 4), stride=(4, 4))
        (norm): LayerNorm((128,), eps=1e-05, elementwise_affine=True)
      )
      (pos_drop): Dropout(p=0.0, inplace=False)
      (layers): Sequential(
        (0): BasicLayer(
          dim=128, input_resolution=(56, 56), depth=2
          (blocks): ModuleList(
            (0): SwinTransformerBlock(
              (norm1): LayerNorm((128,), eps=1e-05, elementwise_affine=True)
              (attn): WindowAttention(
                (qkv): Linear(in_features=128, out_features=384, bias=True)
                (attn_drop): Dropout(p=0.0, inplace=False)
                (proj): Linear(in_features=128, out_features=128, bias=True)
                (proj_drop): Dropout(p=0.0, inplace=False)
                (softmax): Softmax(dim=-1)
              )
              (drop_path): Identity()
              (norm2): LayerNorm((128,), eps=1e-05, elementwise_affine=True)
              (mlp): Mlp(
                (fc1): Linear(in_features=128, out_features=512, bias=True)
                (act): GELU(approximate='none')
                (fc2): Linear(in_features=512, out_features=128, bias=True)
                (drop): Dropout(p=0.0, inplace=False)
              )
            )
            (1): SwinTransformerBlock(
              (norm1): LayerNorm((128,), eps=1e-05, elementwise_affine=True)
              (attn): WindowAttention(
                (qkv): Linear(in_features=128, out_features=384, bias=True)
                (attn_drop): Dropout(p=0.0, inplace=False)
                (proj): Linear(in_features=128, out_features=128, bias=True)
                (proj_drop): Dropout(p=0.0, inplace=False)
                (softmax): Softmax(dim=-1)
              )
              (drop_path): DropPath()
              (norm2): LayerNorm((128,), eps=1e-05, elementwise_affine=True)
              (mlp): Mlp(
                (fc1): Linear(in_features=128, out_features=512, bias=True)
                (act): GELU(approximate='none')
                (fc2): Linear(in_features=512, out_features=128, bias=True)
                (drop): Dropout(p=0.0, inplace=False)
              )
            )
          )
          (downsample): PatchMerging(
            input_resolution=(56, 56), dim=128
            (reduction): Linear(in_features=512, out_features=256, bias=False)
            (norm): LayerNorm((512,), eps=1e-05, elementwise_affine=True)
          )
        )
        (1): BasicLayer(
          dim=256, input_resolution=(28, 28), depth=2
          (blocks): ModuleList(
            (0): SwinTransformerBlock(
              (norm1): LayerNorm((256,), eps=1e-05, elementwise_affine=True)
              (attn): WindowAttention(
                (qkv): Linear(in_features=256, out_features=768, bias=True)
                (attn_drop): Dropout(p=0.0, inplace=False)
                (proj): Linear(in_features=256, out_features=256, bias=True)
                (proj_drop): Dropout(p=0.0, inplace=False)
                (softmax): Softmax(dim=-1)
              )
              (drop_path): DropPath()
              (norm2): LayerNorm((256,), eps=1e-05, elementwise_affine=True)
              (mlp): Mlp(
                (fc1): Linear(in_features=256, out_features=1024, bias=True)
                (act): GELU(approximate='none')
                (fc2): Linear(in_features=1024, out_features=256, bias=True)
                (drop): Dropout(p=0.0, inplace=False)
              )
            )
            (1): SwinTransformerBlock(
              (norm1): LayerNorm((256,), eps=1e-05, elementwise_affine=True)
              (attn): WindowAttention(
                (qkv): Linear(in_features=256, out_features=768, bias=True)
                (attn_drop): Dropout(p=0.0, inplace=False)
                (proj): Linear(in_features=256, out_features=256, bias=True)
                (proj_drop): Dropout(p=0.0, inplace=False)
                (softmax): Softmax(dim=-1)
              )
              (drop_path): DropPath()
              (norm2): LayerNorm((256,), eps=1e-05, elementwise_affine=True)
              (mlp): Mlp(
                (fc1): Linear(in_features=256, out_features=1024, bias=True)
                (act): GELU(approximate='none')
                (fc2): Linear(in_features=1024, out_features=256, bias=True)
                (drop): Dropout(p=0.0, inplace=False)
              )
            )
          )
          (downsample): PatchMerging(
            input_resolution=(28, 28), dim=256
            (reduction): Linear(in_features=1024, out_features=512, bias=False)
            (norm): LayerNorm((1024,), eps=1e-05, elementwise_affine=True)
          )
        )
        (2): BasicLayer(
          dim=512, input_resolution=(14, 14), depth=18
          (blocks): ModuleList(
            (0): SwinTransformerBlock(
              (norm1): LayerNorm((512,), eps=1e-05, elementwise_affine=True)
              (attn): WindowAttention(
                (qkv): Linear(in_features=512, out_features=1536, bias=True)
                (attn_drop): Dropout(p=0.0, inplace=False)
                (proj): Linear(in_features=512, out_features=512, bias=True)
                (proj_drop): Dropout(p=0.0, inplace=False)
                (softmax): Softmax(dim=-1)
              )
              (drop_path): DropPath()
              (norm2): LayerNorm((512,), eps=1e-05, elementwise_affine=True)
              (mlp): Mlp(
                (fc1): Linear(in_features=512, out_features=2048, bias=True)
                (act): GELU(approximate='none')
                (fc2): Linear(in_features=2048, out_features=512, bias=True)
                (drop): Dropout(p=0.0, inplace=False)
              )
            )
            (1): SwinTransformerBlock(
              (norm1): LayerNorm((512,), eps=1e-05, elementwise_affine=True)
              (attn): WindowAttention(
                (qkv): Linear(in_features=512, out_features=1536, bias=True)
                (attn_drop): Dropout(p=0.0, inplace=False)
                (proj): Linear(in_features=512, out_features=512, bias=True)
                (proj_drop): Dropout(p=0.0, inplace=False)
                (softmax): Softmax(dim=-1)
              )
              (drop_path): DropPath()
              (norm2): LayerNorm((512,), eps=1e-05, elementwise_affine=True)
              (mlp): Mlp(
                (fc1): Linear(in_features=512, out_features=2048, bias=True)
                (act): GELU(approximate='none')
                (fc2): Linear(in_features=2048, out_features=512, bias=True)
                (drop): Dropout(p=0.0, inplace=False)
              )
            )
            (2): SwinTransformerBlock(
              (norm1): LayerNorm((512,), eps=1e-05, elementwise_affine=True)
              (attn): WindowAttention(
                (qkv): Linear(in_features=512, out_features=1536, bias=True)
                (attn_drop): Dropout(p=0.0, inplace=False)
                (proj): Linear(in_features=512, out_features=512, bias=True)
                (proj_drop): Dropout(p=0.0, inplace=False)
                (softmax): Softmax(dim=-1)
              )
              (drop_path): DropPath()
              (norm2): LayerNorm((512,), eps=1e-05, elementwise_affine=True)
              (mlp): Mlp(
                (fc1): Linear(in_features=512, out_features=2048, bias=True)
                (act): GELU(approximate='none')
                (fc2): Linear(in_features=2048, out_features=512, bias=True)
                (drop): Dropout(p=0.0, inplace=False)
              )
            )
            (3): SwinTransformerBlock(
              (norm1): LayerNorm((512,), eps=1e-05, elementwise_affine=True)
              (attn): WindowAttention(
                (qkv): Linear(in_features=512, out_features=1536, bias=True)
                (attn_drop): Dropout(p=0.0, inplace=False)
                (proj): Linear(in_features=512, out_features=512, bias=True)
                (proj_drop): Dropout(p=0.0, inplace=False)
                (softmax): Softmax(dim=-1)
              )
              (drop_path): DropPath()
              (norm2): LayerNorm((512,), eps=1e-05, elementwise_affine=True)
              (mlp): Mlp(
                (fc1): Linear(in_features=512, out_features=2048, bias=True)
                (act): GELU(approximate='none')
                (fc2): Linear(in_features=2048, out_features=512, bias=True)
                (drop): Dropout(p=0.0, inplace=False)
              )
            )
            (4): SwinTransformerBlock(
              (norm1): LayerNorm((512,), eps=1e-05, elementwise_affine=True)
              (attn): WindowAttention(
                (qkv): Linear(in_features=512, out_features=1536, bias=True)
                (attn_drop): Dropout(p=0.0, inplace=False)
                (proj): Linear(in_features=512, out_features=512, bias=True)
                (proj_drop): Dropout(p=0.0, inplace=False)
                (softmax): Softmax(dim=-1)
              )
              (drop_path): DropPath()
              (norm2): LayerNorm((512,), eps=1e-05, elementwise_affine=True)
              (mlp): Mlp(
                (fc1): Linear(in_features=512, out_features=2048, bias=True)
                (act): GELU(approximate='none')
                (fc2): Linear(in_features=2048, out_features=512, bias=True)
                (drop): Dropout(p=0.0, inplace=False)
              )
            )
            (5): SwinTransformerBlock(
              (norm1): LayerNorm((512,), eps=1e-05, elementwise_affine=True)
              (attn): WindowAttention(
                (qkv): Linear(in_features=512, out_features=1536, bias=True)
                (attn_drop): Dropout(p=0.0, inplace=False)
                (proj): Linear(in_features=512, out_features=512, bias=True)
                (proj_drop): Dropout(p=0.0, inplace=False)
                (softmax): Softmax(dim=-1)
              )
              (drop_path): DropPath()
              (norm2): LayerNorm((512,), eps=1e-05, elementwise_affine=True)
              (mlp): Mlp(
                (fc1): Linear(in_features=512, out_features=2048, bias=True)
                (act): GELU(approximate='none')
                (fc2): Linear(in_features=2048, out_features=512, bias=True)
                (drop): Dropout(p=0.0, inplace=False)
              )
            )
            (6): SwinTransformerBlock(
              (norm1): LayerNorm((512,), eps=1e-05, elementwise_affine=True)
              (attn): WindowAttention(
                (qkv): Linear(in_features=512, out_features=1536, bias=True)
                (attn_drop): Dropout(p=0.0, inplace=False)
                (proj): Linear(in_features=512, out_features=512, bias=True)
                (proj_drop): Dropout(p=0.0, inplace=False)
                (softmax): Softmax(dim=-1)
              )
              (drop_path): DropPath()
              (norm2): LayerNorm((512,), eps=1e-05, elementwise_affine=True)
              (mlp): Mlp(
                (fc1): Linear(in_features=512, out_features=2048, bias=True)
                (act): GELU(approximate='none')
                (fc2): Linear(in_features=2048, out_features=512, bias=True)
                (drop): Dropout(p=0.0, inplace=False)
              )
            )
            (7): SwinTransformerBlock(
              (norm1): LayerNorm((512,), eps=1e-05, elementwise_affine=True)
              (attn): WindowAttention(
                (qkv): Linear(in_features=512, out_features=1536, bias=True)
                (attn_drop): Dropout(p=0.0, inplace=False)
                (proj): Linear(in_features=512, out_features=512, bias=True)
                (proj_drop): Dropout(p=0.0, inplace=False)
                (softmax): Softmax(dim=-1)
              )
              (drop_path): DropPath()
              (norm2): LayerNorm((512,), eps=1e-05, elementwise_affine=True)
              (mlp): Mlp(
                (fc1): Linear(in_features=512, out_features=2048, bias=True)
                (act): GELU(approximate='none')
                (fc2): Linear(in_features=2048, out_features=512, bias=True)
                (drop): Dropout(p=0.0, inplace=False)
              )
            )
            (8): SwinTransformerBlock(
              (norm1): LayerNorm((512,), eps=1e-05, elementwise_affine=True)
              (attn): WindowAttention(
                (qkv): Linear(in_features=512, out_features=1536, bias=True)
                (attn_drop): Dropout(p=0.0, inplace=False)
                (proj): Linear(in_features=512, out_features=512, bias=True)
                (proj_drop): Dropout(p=0.0, inplace=False)
                (softmax): Softmax(dim=-1)
              )
              (drop_path): DropPath()
              (norm2): LayerNorm((512,), eps=1e-05, elementwise_affine=True)
              (mlp): Mlp(
                (fc1): Linear(in_features=512, out_features=2048, bias=True)
                (act): GELU(approximate='none')
                (fc2): Linear(in_features=2048, out_features=512, bias=True)
                (drop): Dropout(p=0.0, inplace=False)
              )
            )
            (9): SwinTransformerBlock(
              (norm1): LayerNorm((512,), eps=1e-05, elementwise_affine=True)
              (attn): WindowAttention(
                (qkv): Linear(in_features=512, out_features=1536, bias=True)
                (attn_drop): Dropout(p=0.0, inplace=False)
                (proj): Linear(in_features=512, out_features=512, bias=True)
                (proj_drop): Dropout(p=0.0, inplace=False)
                (softmax): Softmax(dim=-1)
              )
              (drop_path): DropPath()
              (norm2): LayerNorm((512,), eps=1e-05, elementwise_affine=True)
              (mlp): Mlp(
                (fc1): Linear(in_features=512, out_features=2048, bias=True)
                (act): GELU(approximate='none')
                (fc2): Linear(in_features=2048, out_features=512, bias=True)
                (drop): Dropout(p=0.0, inplace=False)
              )
            )
            (10): SwinTransformerBlock(
              (norm1): LayerNorm((512,), eps=1e-05, elementwise_affine=True)
              (attn): WindowAttention(
                (qkv): Linear(in_features=512, out_features=1536, bias=True)
                (attn_drop): Dropout(p=0.0, inplace=False)
                (proj): Linear(in_features=512, out_features=512, bias=True)
                (proj_drop): Dropout(p=0.0, inplace=False)
                (softmax): Softmax(dim=-1)
              )
              (drop_path): DropPath()
              (norm2): LayerNorm((512,), eps=1e-05, elementwise_affine=True)
              (mlp): Mlp(
                (fc1): Linear(in_features=512, out_features=2048, bias=True)
                (act): GELU(approximate='none')
                (fc2): Linear(in_features=2048, out_features=512, bias=True)
                (drop): Dropout(p=0.0, inplace=False)
              )
            )
            (11): SwinTransformerBlock(
              (norm1): LayerNorm((512,), eps=1e-05, elementwise_affine=True)
              (attn): WindowAttention(
                (qkv): Linear(in_features=512, out_features=1536, bias=True)
                (attn_drop): Dropout(p=0.0, inplace=False)
                (proj): Linear(in_features=512, out_features=512, bias=True)
                (proj_drop): Dropout(p=0.0, inplace=False)
                (softmax): Softmax(dim=-1)
              )
              (drop_path): DropPath()
              (norm2): LayerNorm((512,), eps=1e-05, elementwise_affine=True)
              (mlp): Mlp(
                (fc1): Linear(in_features=512, out_features=2048, bias=True)
                (act): GELU(approximate='none')
                (fc2): Linear(in_features=2048, out_features=512, bias=True)
                (drop): Dropout(p=0.0, inplace=False)
              )
            )
            (12): SwinTransformerBlock(
              (norm1): LayerNorm((512,), eps=1e-05, elementwise_affine=True)
              (attn): WindowAttention(
                (qkv): Linear(in_features=512, out_features=1536, bias=True)
                (attn_drop): Dropout(p=0.0, inplace=False)
                (proj): Linear(in_features=512, out_features=512, bias=True)
                (proj_drop): Dropout(p=0.0, inplace=False)
                (softmax): Softmax(dim=-1)
              )
              (drop_path): DropPath()
              (norm2): LayerNorm((512,), eps=1e-05, elementwise_affine=True)
              (mlp): Mlp(
                (fc1): Linear(in_features=512, out_features=2048, bias=True)
                (act): GELU(approximate='none')
                (fc2): Linear(in_features=2048, out_features=512, bias=True)
                (drop): Dropout(p=0.0, inplace=False)
              )
            )
            (13): SwinTransformerBlock(
              (norm1): LayerNorm((512,), eps=1e-05, elementwise_affine=True)
              (attn): WindowAttention(
                (qkv): Linear(in_features=512, out_features=1536, bias=True)
                (attn_drop): Dropout(p=0.0, inplace=False)
                (proj): Linear(in_features=512, out_features=512, bias=True)
                (proj_drop): Dropout(p=0.0, inplace=False)
                (softmax): Softmax(dim=-1)
              )
              (drop_path): DropPath()
              (norm2): LayerNorm((512,), eps=1e-05, elementwise_affine=True)
              (mlp): Mlp(
                (fc1): Linear(in_features=512, out_features=2048, bias=True)
                (act): GELU(approximate='none')
                (fc2): Linear(in_features=2048, out_features=512, bias=True)
                (drop): Dropout(p=0.0, inplace=False)
              )
            )
            (14): SwinTransformerBlock(
              (norm1): LayerNorm((512,), eps=1e-05, elementwise_affine=True)
              (attn): WindowAttention(
                (qkv): Linear(in_features=512, out_features=1536, bias=True)
                (attn_drop): Dropout(p=0.0, inplace=False)
                (proj): Linear(in_features=512, out_features=512, bias=True)
                (proj_drop): Dropout(p=0.0, inplace=False)
                (softmax): Softmax(dim=-1)
              )
              (drop_path): DropPath()
              (norm2): LayerNorm((512,), eps=1e-05, elementwise_affine=True)
              (mlp): Mlp(
                (fc1): Linear(in_features=512, out_features=2048, bias=True)
                (act): GELU(approximate='none')
                (fc2): Linear(in_features=2048, out_features=512, bias=True)
                (drop): Dropout(p=0.0, inplace=False)
              )
            )
            (15): SwinTransformerBlock(
              (norm1): LayerNorm((512,), eps=1e-05, elementwise_affine=True)
              (attn): WindowAttention(
                (qkv): Linear(in_features=512, out_features=1536, bias=True)
                (attn_drop): Dropout(p=0.0, inplace=False)
                (proj): Linear(in_features=512, out_features=512, bias=True)
                (proj_drop): Dropout(p=0.0, inplace=False)
                (softmax): Softmax(dim=-1)
              )
              (drop_path): DropPath()
              (norm2): LayerNorm((512,), eps=1e-05, elementwise_affine=True)
              (mlp): Mlp(
                (fc1): Linear(in_features=512, out_features=2048, bias=True)
                (act): GELU(approximate='none')
                (fc2): Linear(in_features=2048, out_features=512, bias=True)
                (drop): Dropout(p=0.0, inplace=False)
              )
            )
            (16): SwinTransformerBlock(
              (norm1): LayerNorm((512,), eps=1e-05, elementwise_affine=True)
              (attn): WindowAttention(
                (qkv): Linear(in_features=512, out_features=1536, bias=True)
                (attn_drop): Dropout(p=0.0, inplace=False)
                (proj): Linear(in_features=512, out_features=512, bias=True)
                (proj_drop): Dropout(p=0.0, inplace=False)
                (softmax): Softmax(dim=-1)
              )
              (drop_path): DropPath()
              (norm2): LayerNorm((512,), eps=1e-05, elementwise_affine=True)
              (mlp): Mlp(
                (fc1): Linear(in_features=512, out_features=2048, bias=True)
                (act): GELU(approximate='none')
                (fc2): Linear(in_features=2048, out_features=512, bias=True)
                (drop): Dropout(p=0.0, inplace=False)
              )
            )
            (17): SwinTransformerBlock(
              (norm1): LayerNorm((512,), eps=1e-05, elementwise_affine=True)
              (attn): WindowAttention(
                (qkv): Linear(in_features=512, out_features=1536, bias=True)
                (attn_drop): Dropout(p=0.0, inplace=False)
                (proj): Linear(in_features=512, out_features=512, bias=True)
                (proj_drop): Dropout(p=0.0, inplace=False)
                (softmax): Softmax(dim=-1)
              )
              (drop_path): DropPath()
              (norm2): LayerNorm((512,), eps=1e-05, elementwise_affine=True)
              (mlp): Mlp(
                (fc1): Linear(in_features=512, out_features=2048, bias=True)
                (act): GELU(approximate='none')
                (fc2): Linear(in_features=2048, out_features=512, bias=True)
                (drop): Dropout(p=0.0, inplace=False)
              )
            )
          )
          (downsample): PatchMerging(
            input_resolution=(14, 14), dim=512
            (reduction): Linear(in_features=2048, out_features=1024, bias=False)
            (norm): LayerNorm((2048,), eps=1e-05, elementwise_affine=True)
          )
        )
        (3): BasicLayer(
          dim=1024, input_resolution=(7, 7), depth=2
          (blocks): ModuleList(
            (0): SwinTransformerBlock(
              (norm1): LayerNorm((1024,), eps=1e-05, elementwise_affine=True)
              (attn): WindowAttention(
                (qkv): Linear(in_features=1024, out_features=3072, bias=True)
                (attn_drop): Dropout(p=0.0, inplace=False)
                (proj): Linear(in_features=1024, out_features=1024, bias=True)
                (proj_drop): Dropout(p=0.0, inplace=False)
                (softmax): Softmax(dim=-1)
              )
              (drop_path): DropPath()
              (norm2): LayerNorm((1024,), eps=1e-05, elementwise_affine=True)
              (mlp): Mlp(
                (fc1): Linear(in_features=1024, out_features=4096, bias=True)
                (act): GELU(approximate='none')
                (fc2): Linear(in_features=4096, out_features=1024, bias=True)
                (drop): Dropout(p=0.0, inplace=False)
              )
            )
            (1): SwinTransformerBlock(
              (norm1): LayerNorm((1024,), eps=1e-05, elementwise_affine=True)
              (attn): WindowAttention(
                (qkv): Linear(in_features=1024, out_features=3072, bias=True)
                (attn_drop): Dropout(p=0.0, inplace=False)
                (proj): Linear(in_features=1024, out_features=1024, bias=True)
                (proj_drop): Dropout(p=0.0, inplace=False)
                (softmax): Softmax(dim=-1)
              )
              (drop_path): DropPath()
              (norm2): LayerNorm((1024,), eps=1e-05, elementwise_affine=True)
              (mlp): Mlp(
                (fc1): Linear(in_features=1024, out_features=4096, bias=True)
                (act): GELU(approximate='none')
                (fc2): Linear(in_features=4096, out_features=1024, bias=True)
                (drop): Dropout(p=0.0, inplace=False)
              )
            )
          )
        )
      )
      (norm): LayerNorm((1024,), eps=1e-05, elementwise_affine=True)
      (avgpool): AdaptiveAvgPool1d(output_size=1)
    )
    (avgpool): AdaptiveAvgPool1d(output_size=1)
  )
  (encoder_decoder): EncoderDecoder(
    (model): Transformer(
      (vis_encoder): Encoder(
        (layers): ModuleList(
          (0): EncoderLayer(
            (self_attn): MultiHeadedAttention(
              (linears): ModuleList(
                (0): Linear(in_features=512, out_features=512, bias=True)
                (1): Linear(in_features=512, out_features=512, bias=True)
                (2): Linear(in_features=512, out_features=512, bias=True)
                (3): Linear(in_features=512, out_features=512, bias=True)
              )
              (dropout): Dropout(p=0.1, inplace=False)
            )
            (feed_forward): PositionwiseFeedForward(
              (w_1): Linear(in_features=512, out_features=512, bias=True)
              (w_2): Linear(in_features=512, out_features=512, bias=True)
              (dropout): Dropout(p=0.1, inplace=False)
            )
            (sublayer): ModuleList(
              (0): SublayerConnection(
                (norm): LayerNorm((512,), eps=1e-05, elementwise_affine=True)
                (dropout): Dropout(p=0.1, inplace=False)
              )
              (1): SublayerConnection(
                (norm): LayerNorm((512,), eps=1e-05, elementwise_affine=True)
                (dropout): Dropout(p=0.1, inplace=False)
              )
            )
          )
          (1): EncoderLayer(
            (self_attn): MultiHeadedAttention(
              (linears): ModuleList(
                (0): Linear(in_features=512, out_features=512, bias=True)
                (1): Linear(in_features=512, out_features=512, bias=True)
                (2): Linear(in_features=512, out_features=512, bias=True)
                (3): Linear(in_features=512, out_features=512, bias=True)
              )
              (dropout): Dropout(p=0.1, inplace=False)
            )
            (feed_forward): PositionwiseFeedForward(
              (w_1): Linear(in_features=512, out_features=512, bias=True)
              (w_2): Linear(in_features=512, out_features=512, bias=True)
              (dropout): Dropout(p=0.1, inplace=False)
            )
            (sublayer): ModuleList(
              (0): SublayerConnection(
                (norm): LayerNorm((512,), eps=1e-05, elementwise_affine=True)
                (dropout): Dropout(p=0.1, inplace=False)
              )
              (1): SublayerConnection(
                (norm): LayerNorm((512,), eps=1e-05, elementwise_affine=True)
                (dropout): Dropout(p=0.1, inplace=False)
              )
            )
          )
          (2): EncoderLayer(
            (self_attn): MultiHeadedAttention(
              (linears): ModuleList(
                (0): Linear(in_features=512, out_features=512, bias=True)
                (1): Linear(in_features=512, out_features=512, bias=True)
                (2): Linear(in_features=512, out_features=512, bias=True)
                (3): Linear(in_features=512, out_features=512, bias=True)
              )
              (dropout): Dropout(p=0.1, inplace=False)
            )
            (feed_forward): PositionwiseFeedForward(
              (w_1): Linear(in_features=512, out_features=512, bias=True)
              (w_2): Linear(in_features=512, out_features=512, bias=True)
              (dropout): Dropout(p=0.1, inplace=False)
            )
            (sublayer): ModuleList(
              (0): SublayerConnection(
                (norm): LayerNorm((512,), eps=1e-05, elementwise_affine=True)
                (dropout): Dropout(p=0.1, inplace=False)
              )
              (1): SublayerConnection(
                (norm): LayerNorm((512,), eps=1e-05, elementwise_affine=True)
                (dropout): Dropout(p=0.1, inplace=False)
              )
            )
          )
        )
        (norm): LayerNorm((512,), eps=1e-05, elementwise_affine=True)
      )
      (text_encoder): TextEncoder(
        (embed): Sequential(
          (0): Embeddings(
            (lut): Embedding(761, 512)
          )
          (1): PositionalEncoding(
            (dropout): Dropout(p=0.1, inplace=False)
          )
        )
      )
      (decoder): Decoder(
        (layers): ModuleList(
          (0): DecoderLayer(
            (self_attn): MultiHeadedAttention(
              (linears): ModuleList(
                (0): Linear(in_features=512, out_features=512, bias=True)
                (1): Linear(in_features=512, out_features=512, bias=True)
                (2): Linear(in_features=512, out_features=512, bias=True)
                (3): Linear(in_features=512, out_features=512, bias=True)
              )
              (dropout): Dropout(p=0.1, inplace=False)
            )
            (src_attn): MultiHeadedAttention(
              (linears): ModuleList(
                (0): Linear(in_features=512, out_features=512, bias=True)
                (1): Linear(in_features=512, out_features=512, bias=True)
                (2): Linear(in_features=512, out_features=512, bias=True)
                (3): Linear(in_features=512, out_features=512, bias=True)
              )
              (dropout): Dropout(p=0.1, inplace=False)
            )
            (feed_forward): PositionwiseFeedForward(
              (w_1): Linear(in_features=512, out_features=512, bias=True)
              (w_2): Linear(in_features=512, out_features=512, bias=True)
              (dropout): Dropout(p=0.1, inplace=False)
            )
            (sublayer): ModuleList(
              (0): SublayerConnection(
                (norm): LayerNorm((512,), eps=1e-05, elementwise_affine=True)
                (dropout): Dropout(p=0.1, inplace=False)
              )
              (1): SublayerConnection(
                (norm): LayerNorm((512,), eps=1e-05, elementwise_affine=True)
                (dropout): Dropout(p=0.1, inplace=False)
              )
              (2): SublayerConnection(
                (norm): LayerNorm((512,), eps=1e-05, elementwise_affine=True)
                (dropout): Dropout(p=0.1, inplace=False)
              )
            )
          )
          (1): DecoderLayer(
            (self_attn): MultiHeadedAttention(
              (linears): ModuleList(
                (0): Linear(in_features=512, out_features=512, bias=True)
                (1): Linear(in_features=512, out_features=512, bias=True)
                (2): Linear(in_features=512, out_features=512, bias=True)
                (3): Linear(in_features=512, out_features=512, bias=True)
              )
              (dropout): Dropout(p=0.1, inplace=False)
            )
            (src_attn): MultiHeadedAttention(
              (linears): ModuleList(
                (0): Linear(in_features=512, out_features=512, bias=True)
                (1): Linear(in_features=512, out_features=512, bias=True)
                (2): Linear(in_features=512, out_features=512, bias=True)
                (3): Linear(in_features=512, out_features=512, bias=True)
              )
              (dropout): Dropout(p=0.1, inplace=False)
            )
            (feed_forward): PositionwiseFeedForward(
              (w_1): Linear(in_features=512, out_features=512, bias=True)
              (w_2): Linear(in_features=512, out_features=512, bias=True)
              (dropout): Dropout(p=0.1, inplace=False)
            )
            (sublayer): ModuleList(
              (0): SublayerConnection(
                (norm): LayerNorm((512,), eps=1e-05, elementwise_affine=True)
                (dropout): Dropout(p=0.1, inplace=False)
              )
              (1): SublayerConnection(
                (norm): LayerNorm((512,), eps=1e-05, elementwise_affine=True)
                (dropout): Dropout(p=0.1, inplace=False)
              )
              (2): SublayerConnection(
                (norm): LayerNorm((512,), eps=1e-05, elementwise_affine=True)
                (dropout): Dropout(p=0.1, inplace=False)
              )
            )
          )
          (2): DecoderLayer(
            (self_attn): MultiHeadedAttention(
              (linears): ModuleList(
                (0): Linear(in_features=512, out_features=512, bias=True)
                (1): Linear(in_features=512, out_features=512, bias=True)
                (2): Linear(in_features=512, out_features=512, bias=True)
                (3): Linear(in_features=512, out_features=512, bias=True)
              )
              (dropout): Dropout(p=0.1, inplace=False)
            )
            (src_attn): MultiHeadedAttention(
              (linears): ModuleList(
                (0): Linear(in_features=512, out_features=512, bias=True)
                (1): Linear(in_features=512, out_features=512, bias=True)
                (2): Linear(in_features=512, out_features=512, bias=True)
                (3): Linear(in_features=512, out_features=512, bias=True)
              )
              (dropout): Dropout(p=0.1, inplace=False)
            )
            (feed_forward): PositionwiseFeedForward(
              (w_1): Linear(in_features=512, out_features=512, bias=True)
              (w_2): Linear(in_features=512, out_features=512, bias=True)
              (dropout): Dropout(p=0.1, inplace=False)
            )
            (sublayer): ModuleList(
              (0): SublayerConnection(
                (norm): LayerNorm((512,), eps=1e-05, elementwise_affine=True)
                (dropout): Dropout(p=0.1, inplace=False)
              )
              (1): SublayerConnection(
                (norm): LayerNorm((512,), eps=1e-05, elementwise_affine=True)
                (dropout): Dropout(p=0.1, inplace=False)
              )
              (2): SublayerConnection(
                (norm): LayerNorm((512,), eps=1e-05, elementwise_affine=True)
                (dropout): Dropout(p=0.1, inplace=False)
              )
            )
          )
        )
        (norm): LayerNorm((512,), eps=1e-05, elementwise_affine=True)
      )
    )
    (logit): Linear(in_features=512, out_features=761, bias=True)
    (att_embed): Sequential(
      (0): Linear(in_features=1024, out_features=512, bias=True)
      (1): ReLU()
      (2): Dropout(p=0.5, inplace=False)
    )
  )
)
Trainable parameters: 100672945
[2023-09-30 22:07:49 iu_test] (main.py 120): INFO number of params: 100672945
[2023-09-30 22:10:12 iu_test] (main.py 64): INFO {'exp_name': 'iu_test', 'seed': 9223, 'data_dir': 'datasets', 'loss_names': {'itm': 1, 'itc': 1, 'mlm': 1, 'vqa': 0, 'nlvr2
…
oad_path': '', 'monitor_metric': 'BLEU_4', 'cls': False, 'addcls': False, 'att_cls': False, 'randaug': False, 'resume': False, 'fbl': False, 'sub_back': False, 'attn_cam': False, 'drop_fbl': False, 'attn_method': False, 'early_exit': False, 'cls_w': 0.5, 'wmse': 0.5, 'layer_id': 2, 'topk': 0.1, 'fore_t': 0.6, 'back_t': 0.3, 'pe': 'none'}
[2023-09-30 22:59:24 iu_test] (main.py 65): INFO RANK and WORLD_SIZE in environ: 0/1
[2023-09-30 22:59:25 iu_test] (main.py 103): INFO RRGModel(
  (visual_extractor): VisualExtractor(
    (model): SwinTransformer(
      (patch_embed): PatchEmbed(
        (proj): Conv2d(3, 128, kernel_size=(4, 4), stride=(4, 4))
        (norm): LayerNorm((128,), eps=1e-05, elementwise_affine=True)
      )
      (pos_drop): Dropout(p=0.0, inplace=False)
      (layers): Sequential(
        (0): BasicLayer(
          dim=128, input_resolution=(56, 56), depth=2
          (blocks): ModuleList(
            (0): SwinTransformerBlock(
              (norm1): LayerNorm((128,), eps=1e-05, elementwise_affine=True)
              (attn): WindowAttention(
                (qkv): Linear(in_features=128, out_features=384, bias=True)
                (attn_drop): Dropout(p=0.0, inplace=False)
                (proj): Linear(in_features=128, out_features=128, bias=True)
                (proj_drop): Dropout(p=0.0, inplace=False)
                (softmax): Softmax(dim=-1)
              )
              (drop_path): Identity()
              (norm2): LayerNorm((128,), eps=1e-05, elementwise_affine=True)
              (mlp): Mlp(
                (fc1): Linear(in_features=128, out_features=512, bias=True)
                (act): GELU(approximate='none')
                (fc2): Linear(in_features=512, out_features=128, bias=True)
                (drop): Dropout(p=0.0, inplace=False)
              )
            )
            (1): SwinTransformerBlock(
              (norm1): LayerNorm((128,), eps=1e-05, elementwise_affine=True)
              (attn): WindowAttention(
                (qkv): Linear(in_features=128, out_features=384, bias=True)
                (attn_drop): Dropout(p=0.0, inplace=False)
                (proj): Linear(in_features=128, out_features=128, bias=True)
                (proj_drop): Dropout(p=0.0, inplace=False)
                (softmax): Softmax(dim=-1)
              )
              (drop_path): DropPath()
              (norm2): LayerNorm((128,), eps=1e-05, elementwise_affine=True)
              (mlp): Mlp(
                (fc1): Linear(in_features=128, out_features=512, bias=True)
                (act): GELU(approximate='none')
                (fc2): Linear(in_features=512, out_features=128, bias=True)
                (drop): Dropout(p=0.0, inplace=False)
              )
            )
          )
          (downsample): PatchMerging(
            input_resolution=(56, 56), dim=128
            (reduction): Linear(in_features=512, out_features=256, bias=False)
            (norm): LayerNorm((512,), eps=1e-05, elementwise_affine=True)
          )
        )
        (1): BasicLayer(
          dim=256, input_resolution=(28, 28), depth=2
          (blocks): ModuleList(
            (0-1): 2 x SwinTransformerBlock(
              (norm1): LayerNorm((256,), eps=1e-05, elementwise_affine=True)
              (attn): WindowAttention(
                (qkv): Linear(in_features=256, out_features=768, bias=True)
                (attn_drop): Dropout(p=0.0, inplace=False)
                (proj): Linear(in_features=256, out_features=256, bias=True)
                (proj_drop): Dropout(p=0.0, inplace=False)
                (softmax): Softmax(dim=-1)
              )
              (drop_path): DropPath()
              (norm2): LayerNorm((256,), eps=1e-05, elementwise_affine=True)
              (mlp): Mlp(
                (fc1): Linear(in_features=256, out_features=1024, bias=True)
                (act): GELU(approximate='none')
                (fc2): Linear(in_features=1024, out_features=256, bias=True)
                (drop): Dropout(p=0.0, inplace=False)
              )
            )
          )
          (downsample): PatchMerging(
            input_resolution=(28, 28), dim=256
            (reduction): Linear(in_features=1024, out_features=512, bias=False)
            (norm): LayerNorm((1024,), eps=1e-05, elementwise_affine=True)
          )
        )
        (2): BasicLayer(
          dim=512, input_resolution=(14, 14), depth=18
          (blocks): ModuleList(
            (0-17): 18 x SwinTransformerBlock(
              (norm1): LayerNorm((512,), eps=1e-05, elementwise_affine=True)
              (attn): WindowAttention(
                (qkv): Linear(in_features=512, out_features=1536, bias=True)
                (attn_drop): Dropout(p=0.0, inplace=False)
                (proj): Linear(in_features=512, out_features=512, bias=True)
                (proj_drop): Dropout(p=0.0, inplace=False)
                (softmax): Softmax(dim=-1)
              )
              (drop_path): DropPath()
              (norm2): LayerNorm((512,), eps=1e-05, elementwise_affine=True)
              (mlp): Mlp(
                (fc1): Linear(in_features=512, out_features=2048, bias=True)
                (act): GELU(approximate='none')
                (fc2): Linear(in_features=2048, out_features=512, bias=True)
                (drop): Dropout(p=0.0, inplace=False)
              )
            )
          )
          (downsample): PatchMerging(
            input_resolution=(14, 14), dim=512
            (reduction): Linear(in_features=2048, out_features=1024, bias=False)
            (norm): LayerNorm((2048,), eps=1e-05, elementwise_affine=True)
          )
        )
        (3): BasicLayer(
          dim=1024, input_resolution=(7, 7), depth=2
          (blocks): ModuleList(
            (0-1): 2 x SwinTransformerBlock(
              (norm1): LayerNorm((1024,), eps=1e-05, elementwise_affine=True)
              (attn): WindowAttention(
                (qkv): Linear(in_features=1024, out_features=3072, bias=True)
                (attn_drop): Dropout(p=0.0, inplace=False)
                (proj): Linear(in_features=1024, out_features=1024, bias=True)
                (proj_drop): Dropout(p=0.0, inplace=False)
                (softmax): Softmax(dim=-1)
              )
              (drop_path): DropPath()
              (norm2): LayerNorm((1024,), eps=1e-05, elementwise_affine=True)
              (mlp): Mlp(
                (fc1): Linear(in_features=1024, out_features=4096, bias=True)
                (act): GELU(approximate='none')
                (fc2): Linear(in_features=4096, out_features=1024, bias=True)
                (drop): Dropout(p=0.0, inplace=False)
              )
            )
          )
        )
      )
      (norm): LayerNorm((1024,), eps=1e-05, elementwise_affine=True)
      (avgpool): AdaptiveAvgPool1d(output_size=1)
    )
    (avgpool): AdaptiveAvgPool1d(output_size=1)
  )
  (encoder_decoder): EncoderDecoder(
    (model): Transformer(
      (vis_encoder): Encoder(
        (layers): ModuleList(
          (0-2): 3 x EncoderLayer(
            (self_attn): MultiHeadedAttention(
              (linears): ModuleList(
                (0-3): 4 x Linear(in_features=512, out_features=512, bias=True)
              )
              (dropout): Dropout(p=0.1, inplace=False)
            )
            (feed_forward): PositionwiseFeedForward(
              (w_1): Linear(in_features=512, out_features=512, bias=True)
              (w_2): Linear(in_features=512, out_features=512, bias=True)
              (dropout): Dropout(p=0.1, inplace=False)
            )
            (sublayer): ModuleList(
              (0-1): 2 x SublayerConnection(
                (norm): LayerNorm((512,), eps=1e-05, elementwise_affine=True)
                (dropout): Dropout(p=0.1, inplace=False)
              )
            )
          )
        )
        (norm): LayerNorm((512,), eps=1e-05, elementwise_affine=True)
      )
      (text_encoder): TextEncoder(
        (embed): Sequential(
          (0): Embeddings(
            (lut): Embedding(761, 512)
          )
          (1): PositionalEncoding(
            (dropout): Dropout(p=0.1, inplace=False)
          )
        )
      )
      (decoder): Decoder(
        (layers): ModuleList(
          (0-2): 3 x DecoderLayer(
            (self_attn): MultiHeadedAttention(
              (linears): ModuleList(
                (0-3): 4 x Linear(in_features=512, out_features=512, bias=True)
              )
              (dropout): Dropout(p=0.1, inplace=False)
            )
            (src_attn): MultiHeadedAttention(
              (linears): ModuleList(
                (0-3): 4 x Linear(in_features=512, out_features=512, bias=True)
              )
              (dropout): Dropout(p=0.1, inplace=False)
            )
            (feed_forward): PositionwiseFeedForward(
              (w_1): Linear(in_features=512, out_features=512, bias=True)
              (w_2): Linear(in_features=512, out_features=512, bias=True)
              (dropout): Dropout(p=0.1, inplace=False)
            )
            (sublayer): ModuleList(
              (0-2): 3 x SublayerConnection(
                (norm): LayerNorm((512,), eps=1e-05, elementwise_affine=True)
                (dropout): Dropout(p=0.1, inplace=False)
              )
            )
          )
        )
        (norm): LayerNorm((512,), eps=1e-05, elementwise_affine=True)
      )
    )
    (logit): Linear(in_features=512, out_features=761, bias=True)
    (att_embed): Sequential(
      (0): Linear(in_features=1024, out_features=512, bias=True)
      (1): ReLU()
      (2): Dropout(p=0.5, inplace=False)
    )
  )
)
Trainable parameters: 100672945
[2023-09-30 23:00:03 iu_test] (main.py 64): INFO {'exp_name': 'iu_test', 'seed': 9223, 'data_dir': 'datasets', 'loss_names': {'itm': 1, 'itc': 1, 'mlm': 1, 'vqa': 0, 'nlvr2': 0, 'caption_mle': 0, 'caption_gold': 0, 'caption_cider': 0}, 'batch_size': 
…
